gen_head_swin_t.pth (torch, 23525 bytes, 2 tensors)

weight f4 [7, 768]
0	0xbeb6ac38	-0.35678267
1	0xbfdbbab7	-1.7166356
2	0xbf3a6061	-0.7280331
3	0xbff250e6	-1.8930938
4	0x3f986368	1.1905336
5	0xbf650025	-0.89453346
6	0xbea134c5	-0.31485572
7	0x3f2727b8	0.6529498
8	0x3e8ab86a	0.27093822
9	0xbf044246	-0.51663625
10	0xbf2f7a8e	-0.6854638
11	0x3e538618	0.20656621
12	0xbf73d3b2	-0.95244896
13	0xc00dd3a5	-2.2160428
14	0x3b81c475	0.003960187
15	0x3deeccf4	0.116601855
16	0x3fc0c6a1	1.5060617
17	0x3f85a679	1.0441428
18	0x3f003e3d	0.5009497
19	0xbff865e8	-1.9406099
20	0xbe39edf3	-0.18157177
21	0xbe4daff4	-0.20086652
22	0xbf863cb5	-1.0487276
23	0xbeeab459	-0.4584072
24	0x40184fac	2.3798628
25	0xbe87026a	-0.2636903
26	0xbf0675bf	-0.52523416
27	0x3f87b767	1.0602845
28	0x3d769158	0.060197204
29	0x3f9b4627	1.2130784
30	0xbee3f1a3	-0.44520292
31	0x3f750a97	0.95719284
32	0x3eb323bf	0.3498821
33	0xbdb73ea0	-0.08947492
34	0xbe528c86	-0.20561418
35	0x3fd33ea6	1.6503494
36	0x3cd16928	0.025562838
37	0x3f2f699f	0.6852054
38	0x3ded9284	0.11600211
39	0xbe42f522	-0.19038823
40	0xbd83f0d1	-0.064424165
41	0x3ff32192	1.899462
42	0x3f5c6e9c	0.86106277
43	0xbfd1c140	-1.63871
44	0x3e2077a1	0.15670635
45	0x3efa3245	0.48866478
46	0xbeb251d4	-0.34828055
47	0xbf86bee3	-1.0527004
48	0x3eb740b7	0.3579156
49	0x3a574524	0.0008211902
50	0x3d4f27e1	0.05057514
51	0x3fc0b23f	1.5054396
52	0xbdca6f14	-0.09884468
53	0x401a4094	2.4101915
54	0x3feaa742	1.8332293
55	0x3f808232	1.0039732
56	0x3f2f1217	0.6838698
57	0xbf50fb38	-0.8163333
58	0xbfbd1c62	-1.4774287
59	0xbf5e8f04	-0.86936975
60	0x3f34c1fa	0.70608485
61	0xbfb109f2	-1.383116
62	0xbf84404a	-1.033212
63	0xbeda6b1c	-0.42659843
64	0xbe56bf74	-0.20971471
65	0xbd85dcc5	-0.06536249
66	0xbf43f682	-0.76548016
67	0x3d203ee4	0.039122477
68	0x3ec73cf5	0.38913694
69	0xbf8706cf	-1.0548953
70	0x3d0abd56	0.03387197
71	0x3ed44f7e	0.41466898
72	0xbfa36c24	-1.2767377
73	0x3f689e82	0.90866864
74	0xbf37ff13	-0.7187359
75	0xbe72f85b	-0.23727553
76	0x3ee8300a	0.4534915
77	0xbcf4703c	-0.029838674
78	0x3da26fd5	0.079314865
79	0x3f165cba	0.5873524
80	0xbd97dcdc	-0.074151725
81	0xbf43ea01	-0.76528937
82	0x3f1aa3a6	0.6040596
83	0xbf65c305	-0.897507
84	0xbf99b7d1	-1.2009221
85	0xbef5c5bb	-0.4800242
86	0xbf29089c	-0.6602876
87	0xbf523ec3	-0.82127017
88	0x3fd7617e	1.6826627
89	0x3f55d876	0.8353342
90	0xbe1454b5	-0.14485438
91	0xbe21e136	-0.15808567
92	0xbeafde3b	-0.34349236
93	0x3e9039e0	0.28169155
94	0xbe3e1e35	-0.1856621
95	0xbf24a64e	-0.6431626
96	0xbf8776a1	-1.0583078
97	0x3fe6c344	1.802834
98	0xbf2559a3	-0.645899
99	0x3f99f26d	1.2027107
100	0x3f9bf2b5	1.2183443
101	0xbef0817c	-0.4697379
102	0x403b4255	2.9259236
103	0x3fa6134c	1.2974639
104	0x3db6edc8	0.08932072
105	0xbe655e93	-0.22399358
106	0x3f484889	0.7823568
107	0xbf31f37c	-0.6951215
108	0x3e81c8d9	0.25348547
109	0xbcc4c73e	-0.024020787
110	0xbf743c23	-0.9540426
111	0x3fe126d9	1.758998
112	0xbd2bc60e	-0.041936927
113	0x4010383c	2.2534323
114	0xbf92846c	-1.1446662
115	0x3f815c81	1.0106355
116	0xbf10d6d7	-0.5657782
117	0x3e6e2394	0.2325576
118	0xbf54fd40	-0.8319893
119	0x3f3e8bf0	0.7443228
120	0xbfb1dc0c	-1.3895278
121	0xbfc4ba55	-1.5369364
122	0xbeaf2c39	-0.34213427
123	0x3e8c3d73	0.27390632
124	0x3f1d4ddd	0.61446935
125	0xbf70a3bc	-0.9399984
126	0xbfc19ecc	-1.5126586
127	0xbf123121	-0.57106215
128	0x3f94030a	1.1563427
129	0xbe17adeb	-0.14812438
130	0xbd131f77	-0.03591868
131	0xbe8acc03	-0.27108774
132	0xbc40b934	-0.011762906
133	0xbf3f336e	-0.7468785
134	0x3f24e317	0.6440901
135	0x3e823fe4	0.2543937
136	0x3ee74c57	0.4517543
137	0xbf3be59a	-0.7339722
138	0x3f74d9c2	0.9564477
139	0x3ebab6bd	0.36467543
140	0xbf4c4310	-0.7978983
141	0x3f3fcce9	0.74922043
142	0x3e5cae77	0.21550928
143	0x3f52b776	0.8231119
144	0x3df91177	0.12161534
145	0xbfb70481	-1.429825
146	0xbd415b95	-0.04720648
147	0x3e42331e	0.18964812
148	0x400e745e	2.2258525
149	0xbe080548	-0.13283265
150	0x3fb64985	1.4241186
151	0xbf2943e7	-0.66119236
152	0xbeaa67f2	-0.3328243
153	0x3f4a145f	0.78937334
154	0xbead9a57	-0.33906814
155	0xbd7a88d9	-0.061165664
156	0x3eb8651b	0.36014637
157	0x3f434f77	0.7629313
158	0x3fa21bfc	1.266479
159	0xbef4deb8	-0.4782617
160	0x3f857cb7	1.0428685
161	0xbdbcc5f5	-0.09217445
162	0x3e612ead	0.21990462
163	0x3f88877a	1.0666344
164	0x3eaa0493	0.33206615
165	0xbd6a8d8b	-0.057263892
166	0xbf24af1c	-0.64329696
167	0x3fae9fef	1.3642558
168	0x3fe8cf0a	1.8188183
169	0xbeffa842	-0.49933058
170	0xbcc0d8ee	-0.02354094
171	0x3f5e21a4	0.8677008
172	0x3f6bf775	0.92174464
173	0xbf5d9bd6	-0.8656591
174	0xbf837104	-1.0268865
175	0x3f7d63da	0.98980486
176	0x3f2215cf	0.6331453
177	0x3f6fe508	0.9370885
178	0x3e961147	0.29310057
179	0x4003464c	2.0511656
180	0xbf89c754	-1.0763955
181	0x3e23d739	0.1600007
182	0x3fb0e64d	1.3820282
183	0xbdea2314	-0.11432472
184	0xbfc77756	-1.5583293
185	0xbb849148	-0.004045639
186	0x400573c7	2.0851915
187	0xbf0d40b8	-0.5517688
188	0x3eea195c	0.45722473
189	0xbdb28f6b	-0.08718761
190	0xbf242318	-0.6411605
191	0xbf8ae6f2	-1.0851729
192	0x3f8960a3	1.0732616
193	0xbf4e8efd	-0.8068693
194	0x3edd0be6	0.4317314
195	0xbf7823cb	-0.96929616
196	0x3f0c8f93	0.54906577
197	0x3f2eaca6	0.6823219
198	0x3ff87a16	1.9412258
199	0xbea2fc80	-0.31833267
200	0xbf6a93a3	-0.91631526
201	0x3dcff51f	0.10154175
202	0x3fa7fe0f	1.3124408
203	0xbe473ba2	-0.19456342
204	0x3ed98075	0.42480817
205	0xc000f2b0	-2.0148125
206	0xbef13b58	-0.47115588
207	0x3f09bc5c	0.5380304
208	0x3fa2e823	1.2727093
209	0xbe52d3ab	-0.20588557
210	0x3e585fa3	0.21130233
211	0x3f4b6752	0.7945453
212	0xbf4d4cf9	-0.80195576
213	0xbfb01f93	-1.3759636
214	0xbf7330fd	-0.94996625
215	0xbf78f01f	-0.97241396
216	0x3f3733d5	0.71563464
217	0xbf72b420	-0.948061
218	0x3fdf15e4	1.7428555
219	0x3f88a54b	1.0675443
220	0xbe4481d5	-0.19190152
221	0xbfbce350	-1.475687
222	0xbed4e65d	-0.41582003
223	0x3eb015a6	0.34391516
224	0xbeee49b4	-0.46540606
225	0x3e1c439a	0.15260163
226	0x3f0fdc51	0.5619555
227	0x3f73aab8	0.9518237
228	0xbeb3bdcc	-0.3510574
229	0xbfe82630	-1.8136654
230	0xbf6b2e8c	-0.918679
231	0xbef38744	-0.47564137
232	0x3f25f6c0	0.64829636
233	0xbf042c37	-0.51629966
234	0xbf89ff5b	-1.0781053
235	0xbf656c7d	-0.89618665
236	0xbebe9b36	-0.37227792
237	0x3f6a5387	0.915337
238	0x3fc667c8	1.5500422
239	0xbf1ec60d	-0.6202095
240	0xbecb13a5	-0.39663425
241	0xbfa9d8b9	-1.3269264
242	0x3dc19f18	0.09454173
243	0x3f9e977c	1.2389979
244	0xbe717467	-0.2357956
245	0xbd84c8e7	-0.064836316
246	0x3f16f271	0.58963686
247	0x3fef45b7	1.869315
248	0x3ff5e929	1.921178
249	0x3b12613e	0.0022335793
250	0xc012a3d6	-2.2912498
251	0xbf41accd	-0.756543
252	0x3f4c7fef	0.7988271
253	0xbd1cea6c	-0.0383095
254	0x3e60225f	0.21888112
255	0xbcdef768	-0.027217582

bias f4 [7]
0	0xbefef2cc	-0.49794614
1	0x3f198739	0.5997196
2	0xbe17ca8d	-0.1482336
3	0xbf18931f	-0.5959949
4	0x3e7299d6	0.23691496
5	0x3ee82726	0.45342368
6	0x3d03db62	0.03219164
