gen_head_swin_tiny.pth (torch, 2173 bytes, 2 tensors)

weight f4 [10, 7]
000000 42 90 2e 3f fe 2b 06 3f 0f 18 7c 3e 17 8f 80 3e
       0.6818887 0.52410877 0.24618553 0.2510917
000010 f2 b2 29 3f ae f4 46 3f 61 0b 87 3e a1 f5 1c 3f
       0.66288674 0.777171 0.2637587 0.613123
000020 1f 45 20 3f 6b a9 65 3e eb 22 0b 3f 10 ba 14 3f
       0.6260547 0.22427909 0.54350156 0.5809641
000030 31 39 4e 3f f9 6c b6 3e a4 04 8d 3e 71 7b 86 3e
       0.8055602 0.35630015 0.27542603 0.26266053
000040 d1 7e 8b 3e 6a e2 5a 3e f3 e0 80 3e ff 98 0d 3e
       0.2724519 0.21375433 0.25171623 0.13827895
000050 10 86 83 3e 3d 11 53 be 6f dc 16 3f f8 ac 49 3e
       0.2568822 -0.20612045 0.58930105 0.19694889
000060 f5 40 3b 3f 74 f5 de 3e 87 73 56 3f af 2e a3 3e
       0.7314599 0.4354664 0.8377003 0.31871554
000070 16 b0 a6 be ec b7 77 bf 13 71 d4 be 8d af 76 be
       -0.32556218 -0.9676502 -0.4149252 -0.24090405
000080 5d 9e c2 be e0 81 44 bf 61 94 73 bf ab be 1a 3f
       -0.38011447 -0.76760674 -0.95148283 0.60447186
000090 f2 59 1a 3f 92 fd f4 3e b4 ea 35 3f 0b 70 f2 3e
       0.60293496 0.4784971 0.71061254 0.47351107
0000a0 be ab 9e 3e 15 9b df 3e d6 0b 20 3d c2 56 cf 3e
       0.30990404 0.43673006 0.039073788 0.40495878
0000b0 1f ee 25 3f 03 47 3f 3f 19 c7 cc 3e ef 1b 41 3e
       0.6481647 0.7471773 0.3999565 0.18858312
0000c0 10 3f 3e 3e 9c 57 bf be 8b 47 40 bf 56 b3 53 be
       0.18578744 -0.37371528 -0.75109166 -0.2067388
0000d0 45 67 ae 3e 62 a0 7b 3e 64 ec 48 bf bd e9 56 bf
       0.34063163 0.245729 -0.78485703 -0.83950406
0000e0 ee 8c 9d be f1 61 db be d8 81 4c bf f5 20 3a bf
       -0.30771583 -0.4284816 -0.79885626 -0.7270654
0000f0 92 be 06 bf ca 93 d2 be fc 79 7c be 66 e5 25 3f
       -0.5263454 -0.4112838 -0.24655908 0.6480316
000100 82 98 e5 3e b5 4b 13 3f 12 9f 62 3f 72 80 53 3f
       0.44842917 0.57537395 0.8852397 0.82617867
000110 e0 37 9f 3e 14 6a 25 3f
       0.31097317 0.6461499

bias f4 [10]
000000 e6 96 cf 3e bd 6e 10 3f bb 9b 16 bf 88 19 e9 be
       0.40544814 0.56418973 -0.58831376 -0.4552729
000010 8a 07 da 3e 3c 3b e6 3e 7b 3f 89 be 0f b0 ca 3e
       0.42583877 0.44967067 -0.26806244 0.39587447
000020 d8 8d 80 3e 8c 12 61 3e
       0.25108218 0.21979731
