gen_head.pth (torch, 16173 bytes, 2 tensors)

weight f4 [7, 512]
0	0xbd04422c	-0.03228967
1	0x3cab2eaa	0.020896275
2	0xbcb64591	-0.022249969
3	0xbc5fbbb1	-0.013655589
4	0xbca72086	-0.02040125
5	0xbcf46db3	-0.029837465
6	0xbd03808c	-0.032105014
7	0x3c7d9089	0.015476354
8	0x3d12edc5	0.035871286
9	0x3b82ed37	0.0039955634
10	0xbbdbdd58	-0.006709736
11	0x3c9bb7ad	0.019008482
12	0xbcbea23c	-0.023270719
13	0xbba251f8	-0.004953619
14	0x3cebd5b4	0.028788425
15	0x3d2c3520	0.04204285
16	0xbc53f886	-0.012937671
17	0xbc9a7f1f	-0.018859444
18	0x3bfcb83f	0.0077123935
19	0x3c97f0ea	0.018547494
20	0x3d109a22	0.035303243
21	0x3bd05d9e	0.0063588163
22	0x3cb7bfd0	0.02243033
23	0x3b07e76c	0.0020737303
24	0xbadc7fa0	-0.0016822703
25	0x3cc8ce47	0.024512423
26	0x3c4e423f	0.0125890365
27	0x3bf9cf71	0.007623606
28	0x3c7b6525	0.015343939
29	0xbd06b8cf	-0.03289109
30	0xbcbd2be3	-0.023092216
31	0xbd206ca5	-0.03916611
32	0xbd0fbfb3	-0.035094928
33	0xbc01c0df	-0.007919519
34	0x3c8bb18f	0.01705244
35	0x3d156e6c	0.03648226
36	0x3d3080fd	0.043091763
37	0x3d24ddd1	0.040250603
38	0x3c5e101d	0.013553646
39	0xbc860ba3	-0.01636297
40	0x3cbeff92	0.023315225
41	0x3cf76829	0.030201035
42	0x3c3dc467	0.0115824705
43	0xbcaf3820	-0.021389067
44	0x3d19fa85	0.03759243
45	0x3c5e4a90	0.013567582
46	0xbc45d4e3	-0.012074682
47	0x3c111797	0.008855722
48	0x3ce36c88	0.027761713
49	0xbd004c2d	-0.031322647
50	0xbd173a68	-0.036920935
51	0xbd293451	-0.04130966
52	0x3c985627	0.018595768
53	0xbb27f50b	-0.0025628235
54	0x3b9f7eb0	0.0048673972
55	0xbd05d301	-0.032671932
56	0x3d2738c1	0.04082561
57	0x3cb96c88	0.02263476
58	0x3c9dc49d	0.019258792
59	0x3bf17439	0.007368591
60	0x3b342c22	0.0027492126
61	0x3cf9a474	0.030473925
62	0x3d0a598b	0.0337768
63	0xbc8bcb42	-0.017064694
64	0xbcf63f8a	-0.030059595
65	0x3d066b0b	0.032816928
66	0x3bf045b7	0.0073325294
67	0x3cdb94a3	0.026804274
68	0xbc10a9bf	-0.008829533
69	0xbcecf6d0	-0.028926283
70	0x3c593e3c	0.013259467
71	0xbd093765	-0.033500094
72	0x3d05091e	0.032479398
73	0x3d28a2ec	0.041171
74	0x3d1f5dee	0.038907938
75	0x3c6d8411	0.014496819
76	0x3d04dce0	0.032437205
77	0xbc91da90	-0.017804414
78	0x3cd4180e	0.025890376
79	0x3d33c971	0.04389328
80	0x3d2bb355	0.04191907
81	0x3cb9201c	0.022598319
82	0x3c52f52b	0.012875835
83	0x3cec7785	0.028865585
84	0x3c5b570a	0.013387451
85	0x3bd95b61	0.0066332077
86	0xbb99f342	-0.004698188
87	0x3b321946	0.0027175709
88	0x3ce51811	0.027965577
89	0xbc894453	-0.016756212
90	0x3b707698	0.003669178
91	0xbbec1728	-0.007204909
92	0x3d306a42	0.043070085
93	0xbcb14bef	-0.021642653
94	0x3b490cfa	0.00306779
95	0x3c7e7795	0.01553144
96	0x3ce91ac0	0.028455138
97	0xbad2576b	-0.0016047781
98	0x3d278d50	0.04090625
99	0xbd0f122a	-0.034929432
100	0xbd02ce57	-0.031935062
101	0xbd0725d7	-0.03299507
102	0x3bed001a	0.007232678
103	0xbc92c6b1	-0.01791701
104	0x3d18ebb6	0.037334166
105	0xbc4a52aa	-0.01234881
106	0x3c4b1c64	0.012396906
107	0xbd2ac2b6	-0.041689597
108	0xbcad8f6e	-0.021186557
109	0x3bc97530	0.006148003
110	0x3cbfc9fe	0.023411747
111	0x3d10edee	0.035383157
112	0x3d011375	0.031512696
113	0xbcad7ad3	-0.021176731
114	0x3c98b5fa	0.01864146
115	0x3bcef728	0.0063160844
116	0x3b9f03a7	0.0048527303
117	0x3d1c39c7	0.03814104
118	0x3cbf5b3e	0.023358937
119	0x3afd35b7	0.0019318376
120	0xbc775684	-0.0150963105
121	0xbc81229f	-0.015763579
122	0x3d34975f	0.04408967
123	0xbc505b79	-0.012717121
124	0xbc1fa879	-0.009744757
125	0x3d0a8e3e	0.03382706
126	0xbd14f039	-0.036361907
127	0x3c3d19ae	0.011541767
128	0x3a28e575	0.0006442883
129	0x3aaf11d7	0.0013356757
130	0xbbacd1fe	-0.0052740565
131	0xbd17f54c	-0.037099168
132	0xbcf9c26b	-0.030488214
133	0x3d1a6bca	0.037700452
134	0xbcaf8fce	-0.021430876
135	0xbd1bb5eb	-0.038015287
136	0x3c95df15	0.01829485
137	0x3d0d5057	0.034500446
138	0xbc7ca3fc	-0.015419956
139	0xbc404609	-0.011735448
140	0x3d16d1ee	0.0368213
141	0x3c73cbb2	0.014880108
142	0x3cecc5bc	0.02890288
143	0x3d22b27d	0.039721
144	0xbd02f056	-0.031967483
145	0xbc97e75f	-0.018542944
146	0xbcf524a7	-0.029924704
147	0x3cdd4d7c	0.027014486
148	0xbd1011bd	-0.035173167
149	0xbd1e7dfb	-0.038694363
150	0x3d082143	0.033234846
151	0x3ccbf17e	0.024895426
152	0x3ccc7c13	0.024961507
153	0xbc615fab	-0.013755719
154	0xbcfbe133	-0.030747032
155	0xbcc523c5	-0.024064908
156	0x3c9d9cbd	0.019239778
157	0x3d2981e3	0.041383635
158	0x3c079cfa	0.008277172
159	0xbd1e0ad9	-0.038584564
160	0x3bbdcd5f	0.0057923044
161	0x3cf0c5bc	0.029391162
162	0x3d0f1aed	0.034937788
163	0x3d2e1000	0.042495728
164	0x3d308641	0.043096785
165	0x3b62e9f8	0.003462432
166	0x3d1c9dac	0.038236305
167	0x3c11d0ad	0.00889985
168	0x3cb354aa	0.021890957
169	0x3cab9a88	0.02094771
170	0xbd287d1b	-0.041134935
171	0xbcc09779	-0.023509728
172	0xbb326d54	-0.002722581
173	0xbd1ed7ca	-0.03878001
174	0x3ccbde6f	0.024886338
175	0x3d1f8f01	0.03895474
176	0x3c949e22	0.01814181
177	0x3b2fa8a2	0.0026803394
178	0xbd1c1098	-0.038101763
179	0xbd138ffc	-0.036025986
180	0xbbd8b947	-0.0066138837
181	0x3b37c68e	0.0028041932
182	0x3b818e0c	0.003953701
183	0xbbba9e41	-0.005695135
184	0xbbdf1a35	-0.006808544
185	0xbc84d579	-0.016215073
186	0x3877dcef	5.909515e-05
187	0xbd051af5	-0.03249641
188	0x39f419db	0.0004655857
189	0xbd2e1330	-0.042498767
190	0x3d29ec49	0.041485105
191	0xbcad2a6c	-0.021138392
192	0x3d160bc2	0.036632307
193	0x390318b4	0.00012502336
194	0xbb9afa0a	-0.004729514
195	0xbd2c4b96	-0.042064272
196	0x3d007bbd	0.031368006
197	0xbce243a0	-0.027620137
198	0x3cdcff86	0.026977312
199	0xbccb5838	-0.02482234
200	0x3d0ed905	0.034874935
201	0xbcebf523	-0.028803414
202	0xbd24f6b8	-0.04027435
203	0x3d051f41	0.03250051
204	0x3cdf4df0	0.027258843
205	0xbcf23664	-0.029566951
206	0xbca51d92	-0.020155702
207	0x3c86c5df	0.016451774
208	0xbca13857	-0.019680185
209	0xbd2b8d16	-0.041882597
210	0x3d20715b	0.039170604
211	0x3b19c322	0.0023462255
212	0xbd0a331f	-0.03374016
213	0x3baf4fc2	0.005350084
214	0x3cdad80c	0.026714347
215	0xbbc3fcce	-0.0059810644
216	0x3be0ddbd	0.0068623708
217	0xbb767383	-0.0037605471
218	0xbd34bcc1	-0.044125322
219	0x3cbbe846	0.022937905
220	0x3d051347	0.032489087
221	0xbb8f70b8	-0.004377451
222	0x3b6cfe07	0.0036162154
223	0xbd095c2c	-0.033535168
224	0x3bf1b700	0.0073765516
225	0x3d2f31f3	0.042772245
226	0xbbee7115	-0.007276664
227	0x3c02e3e4	0.007988904
228	0x3a922a80	0.0011151582
229	0x3d0dce06	0.034620307
230	0x3cbc2fb7	0.022971971
231	0x3ca71283	0.02039457
232	0xbcb3ae64	-0.021933742
233	0x3cd7e9f9	0.026356684
234	0xba9ab184	-0.0011802171
235	0xbd1b6f70	-0.037948072
236	0xbcdef652	-0.027217064
237	0xbd12b1d4	-0.03581412
238	0x3cdf2ca3	0.027242964
239	0xbcf285fc	-0.029604904
240	0xbd0718d3	-0.03298266
241	0xbc7622e1	-0.015022964
242	0xbcf79ada	-0.030225206
243	0xbc5b2892	-0.013376372
244	0xbd2959f4	-0.04134555
245	0xbce6b8fb	-0.028164377
246	0xbd145fdc	-0.03622423
247	0xbc0e8c74	-0.008700479
248	0x3bf15cd8	0.007365804
249	0xbbe0e7d1	-0.006863572
250	0x3d212324	0.039340153
251	0x3c36f91e	0.011167793
252	0x3d24472d	0.04010694
253	0x3d24d42c	0.040241405
254	0xbce0096e	-0.027348246
255	0x3c1e55f2	0.009664046

bias f4 [7]
0	0xbc8db3d1	-0.017297657
1	0xbcc1ce1a	-0.023657847
2	0xbd230f31	-0.03980941
3	0x3c84f2c9	0.01622905
4	0x3d19e5e8	0.03757277
5	0x3c2c95a5	0.010533725
6	0x3d0af88f	0.03392845
